checkpoint.pth (torch_old, 28417 bytes, 6 tensors)

fc1.weight f4 [64, 37]
0	0xbd295ba3	-0.041347157
1	0x3cf1e2f5	0.029527167
2	0xbbda8050	-0.006668128
3	0x3d5ea172	0.054353185
4	0x3e14bf9e	0.14526221
5	0xbe4cf96d	-0.20017023
6	0x3d3de0c3	0.046356928
7	0x3e84afc6	0.25915354
8	0xbd2037a3	-0.03911556
9	0x3e70a334	0.23499757
10	0x3e9274f3	0.2860485
11	0x3d9a6bdd	0.075401045
12	0xbe579a18	-0.21054876
13	0xbe46fca3	-0.19432311
14	0xbf3b0c93	-0.7306606
15	0xbcf9b727	-0.030482842
16	0xbb9998e9	-0.0046874178
17	0xbd1b4f5e	-0.037917487
18	0x3c615421	0.013752968
19	0x3e746c0d	0.23869343
20	0x3dadb9ce	0.08482705
21	0x3d6ded55	0.058087666
22	0x3e562f76	0.20916542
23	0x3bcad2a9	0.0061896634
24	0xbe9cf855	-0.30658212
25	0xbe27cb90	-0.16386247
26	0x3df7b5a7	0.12095194
27	0x3dad1b99	0.084525295
28	0x3e844f7c	0.25841892
29	0x3e1c198f	0.15244125
30	0xbda53185	-0.08066086
31	0x3e11e7ea	0.14248624
32	0x3df4e988	0.11958605
33	0x3dc3f175	0.09567539
34	0x3ea4fc09	0.32223538
35	0x3dd3f999	0.10350341
36	0xbc4a3eb1	-0.012344048
37	0x3d7e4071	0.062073175
38	0xbdc21766	-0.09477119
39	0x3d8ec76e	0.06971632
40	0x3de08305	0.1096249
41	0x3d21e58e	0.03952556
42	0xbd23e1e3	-0.040010344
43	0xbdbf589f	-0.09343075
44	0x3cbaf402	0.02282143
45	0x3df340cc	0.118775934
46	0x3d07fbed	0.03319924
47	0x3d968076	0.07348721
48	0x3de349d1	0.11098064
49	0xbe0c42ac	-0.13697308
50	0x3d0cd9b8	0.03438732
51	0xbd232945	-0.03983428
52	0x3e41ba2b	0.18918674
53	0x3c9eb6d4	0.019374289
54	0xbe5d835d	-0.21632142
55	0xbdf104d7	-0.11768501
56	0xbee379ca	-0.44428855
57	0xbd3a3964	-0.04546489
58	0xbd95d07d	-0.073151566
59	0xbda51320	-0.080602884
60	0xbdc3cf9c	-0.09561083
61	0x3e60af8d	0.21941967
62	0xbd3e46b1	-0.046454135
63	0x3e392df3	0.18083934
64	0xbe310089	-0.1728536
65	0xbdd624cb	-0.104562365
66	0xbe7bc9c1	-0.24588682
67	0xbd08a849	-0.033363614
68	0xb908f274	-0.00013060292
69	0x3d2d7ce4	0.042355433
70	0xbd6d0d21	-0.05787385
71	0x3ca8e972	0.020619128
72	0xbe784564	-0.2424522
73	0x3dae941e	0.08524345
74	0x3c6fc5b4	0.014634538
75	0x3c061110	0.008182779
76	0xbcc37bc2	-0.023862723
77	0x3d62a463	0.055332553
78	0x3d7fd4d2	0.06245882
79	0x3c602b5f	0.0136822155
80	0xbc0a1d9c	-0.008429911
81	0x3d9d2719	0.07673473
82	0xbc51490f	-0.012773766
83	0xbe2724b6	-0.16322598
84	0xbe802dea	-0.2503503
85	0x3e91c3eb	0.28469786
86	0x3d59f9aa	0.053216614
87	0xbd8b531e	-0.06802963
88	0xbe235cab	-0.15953319
89	0x3c8cfb2b	0.01720961
90	0x3ccb7d6f	0.024840085
91	0x3cf3cab2	0.029759739
92	0x3ce3d262	0.02781028
93	0x3d739c07	0.05947497
94	0xbf3cb03c	-0.7370641
95	0x3e3b2865	0.18277128
96	0x3dfc8a10	0.12331021
97	0xbe249775	-0.16073401
98	0xbf2c2de8	-0.6725755
99	0xbb6736a7	-0.0035280378
100	0x3d0b29d0	0.033975422
101	0x3e2815cf	0.1641457
102	0x3e4e0b54	0.20121509
103	0x3de091bd	0.10965297
104	0xbdf7d455	-0.12101046
105	0x3e069570	0.13142943
106	0x3b56163e	0.0032667066
107	0xbd8ecabb	-0.069722615
108	0xbe3b5ec5	-0.1829787
109	0xbc2cbb1e	-0.010542659
110	0xbbfdef83	-0.0077494993
111	0xbcd348a7	-0.02579148
112	0xbe25a282	-0.16175273
113	0xbdd697b3	-0.10478153
114	0x3e1e8c5c	0.1548323
115	0x3e374ee3	0.17901187
116	0xbe4d5e56	-0.20055518
117	0x3e31d52a	0.17366472
118	0x3d8b249e	0.067940935
119	0xbd55e9d8	-0.052224964
120	0xbc2e840c	-0.0106516
121	0x3a712186	0.0009198416
122	0xbda6e0b6	-0.08148329
123	0x3d273339	0.040820334
124	0x3d8a2ed3	0.06747212
125	0x3e33a608	0.17543805
126	0xbd1dccb8	-0.038525313
127	0xbda89c89	-0.08232982
128	0x3d8a50fa	0.06753726
129	0xbd89889e	-0.06715511
130	0x3ed2421b	0.4106606
131	0xbe2db052	-0.16961792
132	0xbe32cd37	-0.17461096
133	0xbd595730	-0.053061664
134	0xbe103560	-0.14082861
135	0x3ea672dc	0.32509506
136	0xbd96326e	-0.073338374
137	0xbe31f815	-0.17379792
138	0x3d7374b6	0.059437476
139	0x3e7789c6	0.2417365
140	0x3ebbe272	0.36696202
141	0xbd61b777	-0.055106606
142	0xbdbc307b	-0.091889344
143	0x3da3dc59	0.08001012
144	0x3e8ae216	0.27125615
145	0x3e9eacc9	0.309912
146	0xbcae9831	-0.021312805
147	0xbb886e35	-0.0041635283
148	0x3d889b0b	0.06670197
149	0x3c96449b	0.01834326
150	0x3d667c58	0.056270927
151	0xbc620d02	-0.013797047
152	0x3c84606c	0.016159259
153	0x3e468d34	0.19389802
154	0x3d616925	0.055031914
155	0x3d8668be	0.06562947
156	0xbe1507f3	-0.14553814
157	0xbee1b387	-0.4408228
158	0x3b68df79	0.003553359
159	0xbe15d69f	-0.14632653
160	0xbdeb9192	-0.11502375
161	0xbcab335c	-0.020898513
162	0xbe0435a6	-0.1291109
163	0x3bdacb20	0.0066770464
164	0x3d84fcc8	0.06493527
165	0x3e04ead4	0.12980205
166	0x3e41857d	0.18898578
167	0x3e66dab6	0.22544369
168	0x3dd11aee	0.102102146
169	0x3dba6115	0.09100548
170	0xbccc9723	-0.024974411
171	0x3d56cda6	0.052442215
172	0x3bb64153	0.0055619865
173	0xbd4f6de9	-0.050641928
174	0x3e5dea0f	0.21671318
175	0x3e28b38a	0.16474739
176	0x3e4bcdba	0.19902697
177	0x3ebd8990	0.37019014
178	0x3e98f848	0.29876924
179	0x3e2704dc	0.16310447
180	0xbe7a89a9	-0.24466576
181	0xbc0bda82	-0.008535983
182	0xbed310c8	-0.4122374
183	0xbd7f350a	-0.06230644
184	0x3c6c09cb	0.014406632
185	0xbe43fd9b	-0.19139712
186	0xbdc9bfdc	-0.098510474
187	0xbc304dcb	-0.010760735
188	0x3df1bfc8	0.118041575
189	0x3e0b9d14	0.1363414
190	0xbc676ac7	-0.014124579
191	0x3d912960	0.0708797
192	0xbc9aa91c	-0.018879466
193	0xbe92fc2f	-0.28708026
194	0xbe421ece	-0.18957064
195	0x3daf3619	0.0855524
196	0x3d77ca55	0.060495693
197	0xbe1fba5d	-0.15598436
198	0xbe86bc94	-0.2631575
199	0xbb789347	-0.003792958
200	0xbd811e12	-0.063045636
201	0x3c7a57d8	0.015279733
202	0xbae21254	-0.0017247894
203	0xbc87031b	-0.016480973
204	0x3e21fe5b	0.15819685
205	0x3dd73a6b	0.10509189
206	0xbdb46c9a	-0.088097766
207	0xbdd3a545	-0.10334257
208	0xbef2993b	-0.4738253
209	0xbd01d8b8	-0.03170082
210	0x3d0649ce	0.03278523
211	0x3cda044a	0.026613373
212	0xbd3e9316	-0.04652699
213	0xbdbc8735	-0.09205476
214	0x3dafc338	0.08582157
215	0x3d09b5a1	0.03362048
216	0xbc804c2d	-0.015661323
217	0x3c852a9a	0.016255666
218	0x3c1163e4	0.008873913
219	0x3b867ff1	0.0041046073
220	0xbe3fabc8	-0.18717873
221	0xbdb3198a	-0.087451056
222	0x3e1b02a1	0.15137722
223	0xbe1f502c	-0.15557927
224	0xbdc38eae	-0.09548698
225	0xbe10ba0f	-0.14133476
226	0xbefbbfd3	-0.49169788
227	0x3dbaf28f	0.09128296
228	0xbda0dd8d	-0.078547575
229	0xbbee7bc1	-0.007277936
230	0xbeb21d09	-0.34787777
231	0xbeec0b72	-0.46102482
232	0x3e1550a8	0.14581549
233	0x3b490d6d	0.0030678168
234	0x3dac5bf3	0.084159754
235	0xbc41b48d	-0.011822832
236	0xbd0b8387	-0.03406098
237	0xbd27a97a	-0.04093311
238	0xbae04203	-0.0017109517
239	0xbd16ae8d	-0.03678756
240	0xbe02ffeb	-0.12792937
241	0xbd717f43	-0.058959257
242	0xbe761a96	-0.24033579
243	0xbf034110	-0.5127115
244	0x3e91da40	0.28486824
245	0x3eadd0e7	0.33948442
246	0xbe536d0e	-0.2064707
247	0x3dd9b9c3	0.10631134
248	0xbb826155	-0.003978888
249	0x3c57f9ac	0.013182085
250	0x3e29be7d	0.16576572
251	0x3e2a6f27	0.16643964
252	0x3d9d6134	0.07684556
253	0x3da06b1e	0.07832931
254	0xbcc23397	-0.02370624
255	0x3d9f7636	0.07786219

fc1.bias f4 [64]
0	0xbdcda59d	-0.10041354
1	0x3d6ab2e5	0.057299513
2	0x3d75af6a	0.05998174
3	0xbcc8e0b6	-0.024521213
4	0x3e31e133	0.17371063
5	0x3d07e3f6	0.033176385
6	0xbd038d03	-0.0321169
7	0xbe1068c2	-0.14102462
8	0xbe7acbaf	-0.24491762
9	0xbc12dc24	-0.008963618
10	0x3d13564e	0.03597098
11	0xbd53f5b3	-0.05174799
12	0x3cf5c478	0.03000091
13	0xbdc1dbff	-0.09465789
14	0x3ca27055	0.019828955
15	0xbe0f0b57	-0.1396917
16	0xbd888749	-0.066664286
17	0xbe012fa0	-0.12615824
18	0xbe1e7c78	-0.15477169
19	0x3df42d59	0.11922712
20	0xbd2e041d	-0.04248439
21	0xbe074f83	-0.13213925
22	0xbd89c9db	-0.06727954
23	0xbd1c637f	-0.038180824
24	0xbe40b7c3	-0.188201
25	0x3cd47e69	0.025939183
26	0xbd382b77	-0.044963326
27	0x3d175de2	0.036954768
28	0x3d474adf	0.048655387
29	0xbe54f231	-0.20795514
30	0xbe04c7c3	-0.12966828
31	0xbe3d89f6	-0.18509659
32	0xbd35e221	-0.044405106
33	0x3e5f56a7	0.21810399
34	0xbca7a710	-0.020465404
35	0x3e122ea0	0.14275599
36	0xbd4dd4ae	-0.050251655
37	0x3cd03906	0.025417816
38	0x3dd9d3eb	0.10636123
39	0xbe046ece	-0.12932894
40	0xbd2b43bb	-0.04181264
41	0x3d20ed41	0.039288763
42	0x3db6650a	0.089059904
43	0x3cc524a7	0.024065329
44	0x3ca571a6	0.020195793
45	0xbd4a2e4b	-0.049360555
46	0x3dd10002	0.102050796
47	0xbe044064	-0.12915188
48	0x3d9d7d95	0.076899685
49	0x3dbb62d4	0.09149709
50	0xbe4141ab	-0.18872707
51	0xbe2be648	-0.16787064
52	0xbe56d899	-0.20981063
53	0xbc9250e3	-0.017860835
54	0x3d337d28	0.04382053
55	0xbdd7db75	-0.10539905
56	0x3dea462a	0.11439164
57	0xbcf2ecfb	-0.029654017
58	0x3dcfd580	0.10148144
59	0x3d063d0e	0.03277307
60	0x3dfe48ec	0.124162525
61	0xbe45b6de	-0.1930804
62	0x3c150a86	0.009096747
63	0xbce17a50	-0.027524143

fc2.weight f4 [64, 64]
0	0xbd6544b3	-0.05597372
1	0x3d09d262	0.033647902
2	0xbe58cdca	-0.21172252
3	0xbd891947	-0.066942744
4	0xbc862088	-0.016372934
5	0xbcfaf5fa	-0.030634869
6	0xbdb0b124	-0.08627537
7	0xbd8f9fb5	-0.070128836
8	0x3d451ebb	0.04812501
9	0xbca6d68d	-0.020365978
10	0xbd342881	-0.04398394
11	0x3e07db40	0.13267231
12	0xbc3befd8	-0.011470757
13	0xbe124039	-0.14282311
14	0xbd9caa0b	-0.076496206
15	0x3e1917c8	0.14950478
16	0xbb680eef	-0.0035409292
17	0xbde8a751	-0.11360038
18	0xbd09259d	-0.033483136
19	0x3e13fa8f	0.1445105
20	0xbd6b2c70	-0.057415426
21	0xbd70600c	-0.058685347
22	0x3e04bf75	0.1296366
23	0xbd2c6ba9	-0.04209486
24	0xbdc463bd	-0.09589336
25	0x3e81e779	0.25371912
26	0xbd153eb6	-0.03643676
27	0xbecfa3fb	-0.40554795
28	0xbd3c9587	-0.046041038
29	0xbdcfb0a2	-0.10141112
30	0xbddd1da1	-0.10796667
31	0x3d2a039b	0.041507345
32	0x3dbe514c	0.0929285
33	0xbe570c1b	-0.21000712
34	0x3e72a1c6	0.23694524
35	0x3e89490e	0.2681355
36	0x3ea99ff0	0.33129835
37	0xbd57262e	-0.052526645
38	0x3ccb919f	0.024849711
39	0x3b95119f	0.0045492197
40	0x3d06bc0b	0.032894175
41	0x3dbd0710	0.09229863
42	0x3dd5c2bc	0.10437533
43	0x3d9ecd7a	0.07754035
44	0xbd08e44d	-0.03342085
45	0xbd689c12	-0.056789465
46	0x3db78069	0.08960039
47	0x3e42972c	0.1900298
48	0x3da7e704	0.081983596
49	0x3ee684f2	0.45023304
50	0xbda6524f	-0.08121168
51	0xbd8ea251	-0.06964553
52	0xbc00b116	-0.007854721
53	0x3f53ce9f	0.82737154
54	0xbf25a6a6	-0.6470741
55	0xbd42d755	-0.047568638
56	0xbd5709b7	-0.0524995
57	0x3dd99c7c	0.1062555
58	0x3d093bc7	0.033504274
59	0x3d28f985	0.041253585
60	0x3e26b341	0.16279317
61	0xbe79b8b3	-0.24386863
62	0x3d9c5163	0.07632711
63	0x3cbe713a	0.02324735
64	0x3d1fbb1c	0.0389968
65	0xbbd34e4d	-0.006448543
66	0xbcf51126	-0.029915404
67	0xbd7bf71b	-0.061514955
68	0xbe3c5ffe	-0.18395993
69	0xbe6830d1	-0.22674872
70	0xbe831fac	-0.256101
71	0x3dfa78a9	0.12230045
72	0xbd61c992	-0.055123873
73	0xbe8802db	-0.2656468
74	0xbd6a3352	-0.05717785
75	0x3e0c1c1c	0.13682598
76	0x3def4652	0.116833344
77	0x3da5b929	0.08091957
78	0xbd3f9ade	-0.046778552
79	0x3dc8ffd9	0.09814424
80	0x3cd02a5b	0.025410822
81	0xbd3ca7be	-0.04605841
82	0xbd509f8d	-0.05093341
83	0xbbbf1662	-0.0058315257
84	0xbd9934fc	-0.07480809
85	0x3e1d7bc6	0.15379247
86	0x3b38846b	0.00281551
87	0xbd69c4be	-0.057072394
88	0xbc816042	-0.01579297
89	0xbd104b81	-0.035228256
90	0xbda26954	-0.07930246
91	0xbe54fc4a	-0.20799366
92	0xbe1ad3ae	-0.15119812
93	0x3dc26041	0.09491015
94	0x3cdd5815	0.02701954
95	0xbdbeffc4	-0.09326127
96	0x3d54cabd	0.05195116
97	0xbe67f698	-0.22652662
98	0x3e1b51bc	0.15167898
99	0x3ec4f2d2	0.38466507
100	0xbd76e60e	-0.06027799
101	0xbcd814a6	-0.026377033
102	0x3d96125f	0.07327723
103	0x3c3d5ee8	0.011558272
104	0xbe85258a	-0.26005203
105	0x3e229a67	0.15879212
106	0xbc8f9e65	-0.017531583
107	0xbcf6a7b6	-0.030109268
108	0xbe01dc28	-0.12681639
109	0xbda76fc9	-0.08175618
110	0xbe2f9ee6	-0.17150459
111	0xbe4d2786	-0.20034608
112	0xbd6d937e	-0.058001988
113	0x3e9101d2	0.283217
114	0xbdc560bc	-0.09637591
115	0x3d5534aa	0.052052177
116	0xbc91fba7	-0.017820193
117	0x3c3452e7	0.011006094
118	0xbd75f425	-0.060047287
119	0xbe07036a	-0.13184896
120	0x3d8f5325	0.069982804
121	0x3e061fa3	0.13098006
122	0xbe0bd02d	-0.13653632
123	0xbdf5189c	-0.119675845
124	0xbc0ce043	-0.00859839
125	0xbc6ae064	-0.014335725
126	0x3d660e1b	0.056165796
127	0x3cdf0ed6	0.027228754
128	0xbdff688f	-0.12471115
129	0x3de97dff	0.11400985
130	0x3d1d9b9c	0.03847848
131	0xbe8270a6	-0.2547657
132	0x3c416558	0.011803947
133	0x3bf17f8c	0.007369941
134	0xbe089fbb	-0.13342182
135	0xbd595267	-0.0530571
136	0xbe1eb738	-0.1549958
137	0xbe739923	-0.23788886
138	0x3db14f11	0.08657659
139	0x3d3fa35e	0.04678666
140	0x3ceeddf0	0.029158562
141	0xbd17a1ad	-0.03701942
142	0xbdcb9b75	-0.099417605
143	0xbe9d0461	-0.30667403
144	0xbe0c5e56	-0.13707861
145	0x3dd203f4	0.1025466
146	0xbe9cbfe2	-0.30615145
147	0x3e2c19a5	0.16806658
148	0x3df9c869	0.12196428
149	0x3c532737	0.0128877675
150	0xbc409470	-0.01175414
151	0xbebcaff1	-0.36852983
152	0x3d6726b0	0.05643338
153	0x3deb7d4c	0.11498508
154	0xbbd2a3f6	-0.006428237
155	0x3c7dcb5c	0.015490379
156	0x3d6ddb62	0.058070548
157	0x3e0bc910	0.13650918
158	0x3dd1a5c3	0.10236695
159	0x3d63a9ff	0.055582043
160	0xbe035965	-0.1282707
161	0x3c8a7468	0.01690121
162	0x3ea14740	0.31499672
163	0x3dec14df	0.11527418
164	0x3df4d239	0.11954159
165	0x3e129038	0.14312828
166	0x3dde8951	0.10866035
167	0xbe04089b	-0.12893908
168	0x3e836c36	0.25668496
169	0x3dfcf803	0.12351992
170	0xbdc37f6d	-0.09545789
171	0xbc54610a	-0.012962589
172	0xbdb37f61	-0.0876453
173	0xbd90a21a	-0.070621684
174	0x3b9133f0	0.0044312403
175	0x3ec11b28	0.3771603
176	0xbcd9dcb3	-0.026594495
177	0x3e16d208	0.14728558
178	0xbd7ad691	-0.061239783
179	0x3de3b916	0.11119287
180	0xbbe4adfc	-0.0069787484
181	0xbe0f013a	-0.13965312
182	0x3def1447	0.116737895
183	0xbdcaaf34	-0.098966986
184	0x3d051dca	0.032499112
185	0xbdd243bf	-0.10266828
186	0xbda3df98	-0.080016315
187	0xbe9159e4	-0.28388894
188	0xbd789d29	-0.060696755
189	0x3e09ebff	0.13468932
190	0x3c90bfd2	0.017669592
191	0xbe13b6d1	-0.14425208
192	0xbd5ec11a	-0.054383375
193	0x3d38b13d	0.045090903
194	0x3e181b9c	0.14854282
195	0xbdde4c56	-0.10854404
196	0x3bb5b18d	0.0055448473
197	0xbd917a60	-0.07103419
198	0x3e56eb82	0.20988277
199	0x3df32b05	0.1187344
200	0xbc9ead8e	-0.019369867
201	0x3d5ee922	0.05442155
202	0x3e5be98f	0.21475814
203	0x3d8a621d	0.06756995
204	0x3d5f3e97	0.05450305
205	0xbbe947b6	-0.0071191443
206	0xbd975b2e	-0.07390438
207	0xbd9e8e13	-0.07741942
208	0x3d54ec05	0.0519829
209	0x3d402539	0.0469105
210	0x3d2cf11f	0.04222214
211	0x3dd48ffd	0.10379026
212	0x3d40b93e	0.04705166
213	0xbd4a3f8c	-0.04937701
214	0xbcafb254	-0.021447338
215	0x3d036b2d	0.032084633
216	0x3d87e23c	0.06634948
217	0x3ea26730	0.3171935
218	0xbcb27db8	-0.021788463
219	0x3b81117f	0.0039388533
220	0xbe22bd1f	-0.15892456
221	0xbd0ba7d1	-0.03409559
222	0x3caef0ce	0.021355059
223	0xbdd3dcb5	-0.10344831
224	0xbd171e47	-0.03689411
225	0x3d6f2b4f	0.05839091
226	0xbc4984cf	-0.01229973
227	0x3e60243d	0.21888824
228	0x3dfa4739	0.12220616
229	0xbdcd1337	-0.100134306
230	0xbdea33ee	-0.11435686
231	0x3d8b260c	0.06794366
232	0xbc8d4e3b	-0.017249217
233	0xbca9251c	-0.020647578
234	0x3e309027	0.1724249
235	0x3de20b46	0.110373065
236	0x3d0f03dc	0.03491579
237	0x3df66c2f	0.12032353
238	0x3bf6ef1c	0.0075358283
239	0x3d07913d	0.033097494
240	0xbaa537a0	-0.0012605079
241	0x3ecb6d83	0.39731988
242	0xbd0e6892	-0.034767695
243	0x3e030343	0.12794213
244	0x3d37f6f3	0.044913244
245	0xbd6c6ffc	-0.057723984
246	0x3e9962e0	0.29958248
247	0x3db05471	0.08609856
248	0x3e0774fa	0.13228217
249	0x3e28889f	0.16458367
250	0x3c76714d	0.015041661
251	0x3da9471f	0.082655184
252	0xbdb3f51b	-0.087869845
253	0xbd2625e7	-0.04056349
254	0xbdfeb6da	-0.1243722
255	0xbdba2945	-0.09089903

fc2.bias f4 [64]
0	0x3e27dfec	0.16394013
1	0x3e3590e0	0.17731047
2	0x3d9d8ba2	0.076926485
3	0x3e8be602	0.2732392
4	0x3d53f3e3	0.05174626
5	0x3d1086a0	0.03528464
6	0x3d81b8bc	0.063340634
7	0xbd22c664	-0.03973998
8	0xbc8393f5	-0.016061762
9	0x3ddb6d9c	0.10714266
10	0x3c70eec3	0.014705363
11	0xbcec41a2	-0.02883989
12	0x3e7a2a40	0.2443018
13	0xbd970c85	-0.07375435
14	0x3c5231d5	0.012829264
15	0x3d75df65	0.0600275
16	0xbe2e62f2	-0.17029932
17	0x3ccf5dd8	0.025313303
18	0x3ce11e36	0.027480226
19	0xbb38d8ab	-0.0028205316
20	0x3d0279b0	0.03185433
21	0x3d8b026d	0.06787572
22	0xbe088640	-0.13332462
23	0x3e4bdb28	0.1990782
24	0xbd892664	-0.066967756
25	0x3dd01577	0.10160344
26	0xbd55bd1c	-0.052182302
27	0xbda3406a	-0.079712704
28	0x3e8ee2ff	0.2790756
29	0x3d9b3858	0.07579106
30	0xbce97e25	-0.028502533
31	0xbd9182f2	-0.07105054
32	0xbe0ce014	-0.13757354
33	0x3dcaa4a7	0.09894686
34	0xbd9dfd45	-0.07714323
35	0xbd9d3187	-0.07675462
36	0xbc6a4e89	-0.014300951
37	0xbdb66ac6	-0.08907084
38	0x3c94684b	0.018116137
39	0x3cf38a53	0.029729044
40	0x3eaee09a	0.34155732
41	0x3d27e52e	0.040990047
42	0x3c870b13	0.016484773
43	0x3e7079eb	0.23484008
44	0x3def387c	0.116806954
45	0x3e909269	0.28236702
46	0xbcb355a8	-0.02189143
47	0xbdfee44c	-0.12445888
48	0x3ca730d1	0.02040902
49	0x3e8291ae	0.2550177
50	0xba38db19	-0.0007051691
51	0xbd72fd5c	-0.059323654
52	0xbd736c37	-0.059429374
53	0xbd86c7b8	-0.06581062
54	0x3dc13a7e	0.094349846
55	0xbcec23a0	-0.028825581
56	0x3e005cb7	0.12535368
57	0x3db9b9b1	0.09068621
58	0x3c10b26a	0.0088316
59	0xbdee593e	-0.11638115
60	0x3c1c5529	0.009541788
61	0x3d992162	0.074770704
62	0xbcb26dce	-0.021780875
63	0xbb9ac32a	-0.0047229724

fc3.weight f4 [4, 64]
0	0x3e8e6540	0.27811623
1	0x3e63be8a	0.22240654
2	0x38e911f1	0.000111136476
3	0x3dcd97a2	0.10038687
4	0x3e62a7d9	0.22134341
5	0xbe413723	-0.18868689
6	0x3ea5b752	0.32366425
7	0xbe2fd36c	-0.17170495
8	0xbd89bafb	-0.06725117
9	0xbc3f9918	-0.011694215
10	0x3cc0e73f	0.023547767
11	0x3e20fcf2	0.15721491
12	0x3de44d2a	0.111475304
13	0xbdab09b6	-0.083514616
14	0x3dc2339f	0.09482502
15	0xbedaa9ef	-0.42707774
16	0xbdf3b80b	-0.11900338
17	0xbe96c4ab	-0.2944692
18	0xbdf69f8d	-0.12042151
19	0x3cd112a8	0.025521591
20	0x3e78b714	0.24288589
21	0x3d832421	0.064033754
22	0x3cbdab90	0.023153096
23	0x3df7082d	0.12062106
24	0x3d072658	0.03299555
25	0xbe4c322d	-0.19941016
26	0x3ddae6ea	0.106885746
27	0xbd42399c	-0.04741822
28	0x3dc09753	0.09403863
29	0x3e46b615	0.19405396
30	0x3e2db114	0.16962081
31	0x3ecc7891	0.39935735
32	0xbd764313	-0.06012256
33	0x3d22f489	0.03978399
34	0xbc9f6268	-0.019456103
35	0xbe38b30c	-0.18037051
36	0x3e05ab4e	0.13053629
37	0xbdb1f4a1	-0.086892374
38	0x3e99a734	0.30010378
39	0x3dff2882	0.12458898
40	0x3e46634f	0.1937382
41	0x3e4dafde	0.2008662
42	0xbc61731c	-0.013760354
43	0x3de9f946	0.11424498
44	0x3e1bb4b7	0.15205656
45	0x3dc73d8a	0.097285345
46	0xbcc5adde	-0.024130758
47	0x3c033a1e	0.008009462
48	0xbe865a95	-0.26240984
49	0x3e06e625	0.1317373
50	0xbe97fcf0	-0.29685163
51	0xbe2d152f	-0.16902612
52	0x3e8b633c	0.27224147
53	0xbdf84de6	-0.12124233
54	0x3e8b87f0	0.2725215
55	0x3dc7c11d	0.0975363
56	0xbe43151d	-0.19051023
57	0x3e03cd1c	0.12871212
58	0xbd66540e	-0.056232505
59	0xbe104d65	-0.14092024
60	0xbe1abd6b	-0.1511132
61	0xbe5c89e4	-0.21536976
62	0x3e619111	0.22027995
63	0x3dbd8e1b	0.0925562
64	0x3e5b7c2f	0.21434091
65	0x3da9535e	0.08267854
66	0xbd1d26e0	-0.038367152
67	0x3e021067	0.1270157
68	0xbed9b32b	-0.42519507
69	0x3d66dd2e	0.056363277
70	0x3e86173c	0.261896
71	0xbe5c4d8b	-0.21513955
72	0xbd24fc4a	-0.040279664
73	0x3e30ed7c	0.17278093
74	0x3e792887	0.24331866
75	0xbeb2af78	-0.34899497
76	0x3dc8f7eb	0.098129116
77	0xbde336da	-0.110944465
78	0x3d993f93	0.07482829
79	0x3e137dfe	0.14403531
80	0xbeb8e742	-0.36113936
81	0xbd94fa0d	-0.07274256
82	0x3bc775ae	0.0060870266
83	0x3e2d96a8	0.16952002
84	0xbe4456eb	-0.19173782
85	0xbe195499	-0.14973678
86	0x3d62a17c	0.055329785
87	0x3dfae162	0.122500196
88	0x3da37396	0.07981031
89	0xbcf19394	-0.029489316
90	0x3ccc2628	0.024920538
91	0xbe67e37d	-0.22645374
92	0x3e55a336	0.20863041
93	0x3e8898e9	0.2667916
94	0x3e636656	0.22207007
95	0x3e8caafe	0.27474207
96	0xbea135c1	-0.31486323
97	0x3e865929	0.262399
98	0xbeab99f6	-0.335159
99	0xbd701246	-0.058611177
100	0x3da7fe22	0.08202769
101	0xbd219a58	-0.039453834
102	0x3ebe3797	0.37151787
103	0x3e464a82	0.1936436
104	0x3e2e5b71	0.1702707
105	0x3d6fb552	0.05852253
106	0x3d7f0a19	0.06226549
107	0x3e01c696	0.12673411
108	0x3de2afca	0.11068685
109	0x3df0dde2	0.11761071
110	0x3dc509d7	0.096210174
111	0x3cbf00fa	0.023315895
112	0x3d832cfc	0.064050645
113	0x3e4b22ff	0.19837569
114	0x3cb41e11	0.021986993
115	0x3debfd9d	0.11522982
116	0xbe762e4a	-0.24041095
117	0xbeec9e3b	-0.4621447
118	0x3e919641	0.28434947
119	0x3d96828d	0.07349119
120	0x3d569bd4	0.052394703
121	0x3e7116d8	0.2354387
122	0x3e2b7bdb	0.16746466
123	0xbd96aad7	-0.07356804
124	0x3da4c684	0.08045676
125	0xbe17c01b	-0.14819376
126	0x3de0526f	0.10953223
127	0xbd135c1f	-0.035976525
128	0x3e86971c	0.26287162
129	0xbd0fd7a1	-0.03511775
130	0xbd9956f4	-0.07487288
131	0x3bb4a5e8	0.0055129416
132	0x3e12db1a	0.14341393
133	0x3ea5e63d	0.3240222
134	0x3e7bc07e	0.24585149
135	0xbe3317be	-0.17489526
136	0xbe9b9cff	-0.30393216
137	0x3eaee76d	0.3416094
138	0xbdc57035	-0.096405424
139	0xbea96837	-0.33087322
140	0x3d8917c1	0.06693984
141	0x3c979e91	0.018508228
142	0x3e58f376	0.21186623
143	0xbea3eee8	-0.32018209
144	0xbea492c7	-0.32143232
145	0xbe91cd82	-0.28477103
146	0xbdec8d07	-0.11550336
147	0x3da01530	0.07816541
148	0xbeb5549b	-0.3541611
149	0x3e938711	0.28813985
150	0xbd1e006e	-0.03857463
151	0x3db0a061	0.0862434
152	0x3e415396	0.18879542
153	0x3a03aca1	0.0005022977
154	0xbe9e4a7f	-0.3091621
155	0x3e3e043a	0.185563
156	0x3dc32a23	0.09529521
157	0x3ea2f78b	0.31829485
158	0x3e11f4db	0.14253561
159	0x3e918af6	0.2842633
160	0x3dbbfa37	0.09178584
161	0x3c45e15a	0.012077654
162	0xbeb0a147	-0.34498045
163	0xbde254df	-0.11051344
164	0x3e5f17ea	0.21786466
165	0xbda0eafc	-0.0785732
166	0xbd204337	-0.0391266
167	0x3ec8e607	0.39237997
168	0x3e037557	0.1283773
169	0xbe862383	-0.26198968
170	0x3eb6bc89	0.35690716
171	0x3dc731b3	0.09726276
172	0x3e0de63a	0.13857356
173	0x3e23fef3	0.16015224
174	0xbe53065f	-0.20607899
175	0xbd6ef33e	-0.058337443
176	0xbea1255d	-0.31473818
177	0x3d7ddd2e	0.06197851
178	0xbdd028a3	-0.10164001
179	0xbeb2550e	-0.34830517
180	0x3f13aa12	0.5768138
181	0xbe58da15	-0.21176942
182	0x3e56fbc8	0.20994484
183	0x3eb58755	0.35454813
184	0x3df71991	0.12065423
185	0x3e77d56a	0.24202505
186	0x3e950c07	0.2911074
187	0xbe61fb78	-0.22068584
188	0x3da7c7a5	0.08192376
189	0xbdb5a6ad	-0.088696815
190	0xbcd96e7f	-0.026541946
191	0xbdaf4dec	-0.08559784
192	0x3e423b3e	0.18967912
193	0x3dee2dc9	0.116298266
194	0x3e4a6429	0.1976477
195	0x3e338888	0.17532551
196	0x3ebac619	0.36479262
197	0xbe26b4cb	-0.16279905
198	0x3e3ba02e	0.18322822
199	0x3e6571f1	0.22406746
200	0xbeb5befc	-0.35497272
201	0xbe625a59	-0.22104777
202	0x3db8943f	0.09012651
203	0xbeb09f9d	-0.34496775
204	0x3e00fd0e	0.12596533
205	0xbe873b3e	-0.26412386
206	0xbd1d73f9	-0.03844068
207	0xbe544a05	-0.20731361
208	0xbe2f2493	-0.17103796
209	0xbe0c5c1a	-0.13707009
210	0x3c974396	0.018464845
211	0xbd40f33a	-0.04710696
212	0x3decc32c	0.115606636
213	0x3e72bdaa	0.23705164
214	0x3b6812c0	0.0035411566
215	0x3de4f6ac	0.111798614
216	0x3dbbc6d7	0.09168785
217	0x3dcfffdd	0.10156224
218	0x3bf5a55e	0.00749652
219	0x3d8bb115	0.06820885
220	0x3cd4e60d	0.025988603
221	0x3df404b0	0.119149566
222	0xbe52f20e	-0.20600149
223	0x3f1b39c4	0.6063502
224	0xbcacbc5d	-0.021085912
225	0x3e9ef9a9	0.3104985
226	0xbe1bd48c	-0.15217799
227	0xbdcc277a	-0.09968467
228	0x3c31cbd7	0.010851822
229	0xbe875f2e	-0.26439804
230	0x3edef82a	0.4354871
231	0xbe07d2bf	-0.13263987
232	0x3e233d38	0.15941322
233	0xbe22ba94	-0.15891486
234	0xbd548612	-0.051885672
235	0x3dd7a7f6	0.10530083
236	0x3d314c07	0.043285396
237	0x3e1c576c	0.15267724
238	0xbe5335e8	-0.20626032
239	0x3d49a2cc	0.04922752
240	0x3d2112b6	0.039324485
241	0x3e46be89	0.19408621
242	0xbe8a1ab7	-0.26973507
243	0xbe72fcbd	-0.23729225
244	0x3c018010	0.007904068
245	0xbe766a38	-0.24063957
246	0x3d4c4357	0.049868908
247	0x3f30e239	0.6909519
248	0xbc923284	-0.017846353
249	0x3e98016b	0.29688582
250	0x3f12b9fe	0.5731505
251	0x3d7172ab	0.058947247
252	0xbe6f95a4	-0.23396927
253	0xbe840e55	-0.25792184
254	0x3db56f3a	0.088591054
255	0x3e1d4b69	0.15360798

fc3.bias f4 [4]
0	0x3e8dc822	0.27691752
1	0x3d988a3c	0.07448241
2	0x3e8361f3	0.25660667
3	0x3dee817e	0.116457924
