checkpoint.pth (torch_old, 28417 bytes, 6 tensors)

fc1.weight f4 [64, 37]
00000000: 6e55 6b3d de53 adbd 6333 26bd 18b3 0f3d
00000010: 9c0d 873e 29d0 053e 19c6 4fbd 7a9f 003e
00000020: 3c66 7ebd a0a8 97be 212e 683e 26ba c9bd
00000030: 6cc5 4ebe 54e2 3f3d 5103 c5be 68ed aebc
00000040: 9ee1 343d accd fabd 8a10 09be aac2 9f3e
00000050: abcc 6c3d 9502 013d ea1f 173e d012 3b3e
00000060: 1d4d 8fbd 0765 a4bd 03d4 f8bd 3f27 bd3d
00000070: 0fba 973d 284c 213e 8bbd bd3d 004d d33d
00000080: 9975 f8bc 3b4a 343e 0714 1dbd a737 6e3d
00000090: 5023 c73b 1d55 3f3d d736 a23d f778 233d
000000a0: d9d4 553d f936 a3bd a9ff 2abd b217 4b3d
000000b0: 5b2b f43b b78e 773e 7244 b93e 55aa babd
000000c0: 63cc a13d 2e92 873c abee 2e3e d139 85bd
000000d0: 441b 363d 5de7 b63d ddf2 75bd 173b 0abd
000000e0: 45ed f9bd 9728 9a3d 55f0 53be 042d 38bd
000000f0: c382 09be 688e f8be 4b0d 123c d7ae 20bd
00000100: de59 94bd b7a9 36bc 038b 07be ebf3 913c
00000110: 6dc5 813d d18f 04bc 7845 5bbe 43a2 82be
00000120: 8fc6 56be da26 363c 2ef2 eabd 00ca 9f3c
00000130: e663 b33d 835a 5cbd 635e 4c3d 30dd 93bd
00000140: af38 d43c e38a 463e 5e82 bcbe 761b 0ebe
00000150: 5680 47be 05b3 223d 9d88 573e adc5 6ebc
00000160: 1430 8fbc 6b75 2e3e 7c70 e5bc f9f0 22be
00000170: fd25 7bbd c411 4ebe 8447 b9bd aba5 debd
00000180: 09fa 2b3e fbef adbe 768c c0bd a35e 803d
00000190: 7909 543c ab21 dd3d 9d9e e23d 9322 95be
000001a0: e7dd 8ebc 37e5 c1bd a503 8c3d f35d 33be
000001b0: 51d3 563d 6a82 4f3c 8622 14bd 4da5 b7bd
000001c0: cf37 d5bd c8fc d63b c0f1 023e ff44 b03e
000001d0: 12c6 0dbe 1c25 ac3d 29a1 d1bc 52be 053e
000001e0: 6e5e b33e 45d7 09be 7aeb 623d cfc2 c73c
000001f0: bb99 a33d c77a 9a3d 71c1 11be c1c5 debd
00000200: 64e6 313d 3082 c1bc e861 913e 66ec 4fbe
00000210: 72b0 0dbe ad6d 03be 477a 3a3b b834 2b3e
00000220: 53d5 3abe c6e2 5ebd 4200 2a3e 429f 803e
00000230: 55a9 233f cf55 f9bd ec7e 19bd f15d e93d
00000240: d25b 7e3e 738d bd3e 1204 64bd e8d7 11bc
00000250: b1bf 003e 840a a0be b948 d53d 1c55 42be
00000260: a176 abbe a453 183e bb55 21bd 4d17 10be
00000270: f5f8 f6bb 209f 13bf c160 b1bd e401 56be
00000280: 4d14 d1bd 19e5 a7be 109a 97be 0df7 263e
00000290: 6a16 d3be e154 a83c ed36 7cbe 0fb7 7f3e
000002a0: 484c 68bd 8d62 37bd d752 383d deb4 babd
000002b0: dae7 203d df20 a8bd a29f 483e be83 baba
000002c0: 18e1 313e f0d4 403e 22a7 3c3e 8170 1cbe
000002d0: d540 3dbe 12e0 7cbc a9b2 ffbe a7ba 83bd
000002e0: 2aa7 863c 0c39 2ebe 3294 6bbb d82a 4ebe
000002f0: 8bc5 a43e c8ab b23d 1601 13be 4c6a 213e
00000300: 2560 8fbd 87a3 4cbd bbf1 97bd 19ff eb3d
00000310: f87d e53b 8c21 beba dd93 41be 1fb0 523e
00000320: 97d4 153d 928d a1bd 5ac5 92ba 51ed 93bc
00000330: 0219 a23d a3bc c3bd 71cf 66bd 8fc0 3a3c
00000340: 6618 7abe cc11 82bd 297e 87bd 460f 99bd
00000350: f564 6d3e fdee 7a3d ee87 ae3d 5588 343c
00000360: 37a5 2bbd 9670 8dbd d351 5d3e f02c 3e3e
00000370: 9d89 24be 4127 26bd 9332 223e 32bb 17be
00000380: 4457 41bd 8041 dabe 0216 c6be 69f6 04be
00000390: 5e5b 023e a842 013e 2d2a 72be f643 173e
000003a0: 16b9 763d e4f6 2dbe fd4d 3d3e c5fd 203e
000003b0: a740 14be 5aab 2ebe 5178 0dbc 7bcc 00be
000003c0: cd0c 213e 4b53 c9be 78b6 5dbe 7a78 cc3d
000003d0: 0282 163e 5a25 0c3d 591d f4bd 6a97 8a3e
000003e0: 85d2 26bd db34 1dbe 3427 bd3d d9bb b33d
000003f0: 7498 303d 7e0f b5bd d609 133d 3c80 ec3d
0.05745452 -0.08463262 -0.04057635 0.035082906 0.2637757 0.13067688 -0.05072603 0.12560835
-0.062109217 -0.29620838 0.22673847 -0.09849958 -0.20192498 0.046846703 -0.38479093 -0.021353438
0.044160478 -0.1224626 -0.13385215 0.31203204 0.057812374 0.031496603 0.14758268 0.18268895
-0.0699713 -0.08027082 -0.12149813 0.09236001 0.07408535 0.15751708 0.09264668 0.10317421
-0.030329512 0.17606442 -0.038349178 0.058158543 0.0060772076 0.04671203 0.07920616 0.039910283
0.05220494 -0.079694696 -0.041747723 0.049583144 0.0074514574 0.24175535 0.36185032 -0.091145195
0.07900312 0.016549196 0.17083232 -0.06505168 0.044459596 0.08930848 -0.060046066 -0.03374776
-0.12203459 0.07527273 -0.20697148 -0.044964805 -0.13428788 -0.48546147 0.008914302 -0.03922924
-0.07243703 -0.011148862 -0.13236623 0.017816504 0.06336484 -0.008090929 -0.21413219 -0.2551442
-0.20974182 0.011117661 -0.11471973 0.0195055 0.087592885 -0.053797256 0.0498947 -0.072199225
0.025905935 0.19388919 -0.36818212 -0.13877663 -0.1948255 0.039721508 0.21048208 -0.014573497
-0.01747898 0.17036979 -0.028007738 -0.15912236 -0.061315525 -0.20123965 -0.09046844 -0.108714424
0.167946 -0.33972153 -0.09401791 0.062680505 0.012941712 0.10797437 0.11065409 -0.2912794
-0.017439796 -0.094675474 0.06836633 -0.17516308 0.05244762 0.0126653705 -0.036165737 -0.089670755
-0.10411035 0.0065608956 0.12787533 0.3442764 -0.13845089 0.084055156 -0.025589542 0.13060883
0.35032982 -0.13461025 0.05540035 0.024384884 0.07988306 0.07542949 -0.14233948 -0.10877562
0.04343261 -0.023621649 0.2839501 -0.20305023 -0.1383684 -0.12834807 0.002845423 0.1671933
-0.18245439 -0.054415487 0.16601661 0.25121504 0.63930255 -0.1217457 -0.037474558 0.11394871
0.24839714 0.3702198 -0.055667944 -0.008901574 0.12573124 -0.31258023 0.10414261 -0.18977779
-0.33488944 0.14875656 -0.0393884 -0.14071389 -0.007537002 -0.5766468 -0.086610325 -0.20899159
-0.1020895 -0.32791975 -0.29609728 0.1630518 -0.41228038 0.020548286 -0.24630328 0.24972175
-0.056713372 -0.04477172 0.045000877 -0.09116529 0.03928361 -0.08209395 0.19592145 -0.0014229936
0.17371023 0.18831229 0.18423131 -0.15277292 -0.18481763 -0.015434282 -0.49940994 -0.064320855
0.016437132 -0.17013949 -0.0035946486 -0.20133531 0.32181963 0.08724171 -0.14355883 0.15763205
-0.0700076 -0.04996064 -0.07419153 0.115232654 0.007003542 -0.0014505847 -0.18904062 0.20574997
0.036579695 -0.078883305 -0.0011197731 -0.018057497 0.07914926 -0.09557464 -0.056350175 0.011398449
-0.2442337 -0.06351051 -0.0661586 -0.07473616 0.23183043 0.061263073 0.0852202 0.011018832
-0.041905608 -0.0690624 0.21613245 0.1857183 -0.1606812 -0.04056478 0.15839605 -0.14817503
-0.047202364 -0.42628098 -0.38688666 -0.12984623 0.12730166 0.12623084 -0.23648901 0.14772019
0.060235105 -0.16988713 0.18486781 0.15721805 -0.14477788 -0.17057553 -0.008634643 -0.12578003
0.1572754 -0.3932136 -0.21651638 0.099839166 0.14698032 0.03421531 -0.1191966 0.27068645
-0.04072811 -0.15352194 0.09235993 0.087760635 0.04311414 -0.088408455 0.035898052 0.11547896

fc1.bias f4 [64]
00000000: d58f fdbd 7f74 973d c61b 173d 8029 4fbd
00000010: 5612 9c3d 6efb 4c3d 3a86 49bd 636c 23be
00000020: c149 39be 8d17 003d 2c1c 9b3d f925 70bd
00000030: 94f9 973b bb42 1b3d ea33 963d 0662 f4bd
00000040: b92a 7dbd 5017 37bd f95f 00be 8526 083e
00000050: ef33 cc3c 91c0 dcbd 2416 ffbc 2138 633c
00000060: 304f 21be 269a c6bb 8e84 05bd 3ec5 e73c
00000070: 0491 4c3e 6900 4bbe c3cb 10be 4c49 f1bd
00000080: bd18 90bc ee1f 533e e03e 57bc 342f 1a3d
00000090: 615e 10be cc87 53bd 62b7 a13d 4a9b ffbd
000000a0: 95ac bf3d 5a3c 153d ab99 b23d a399 65bd
000000b0: 635e d53c b2d5 21bd a17d 903d 1e1e 0bbe
000000c0: 9b82 de3d 4788 463c 1787 47be 9661 39be
000000d0: 318c 9ebd 3a0a adbc 6f6a a43d 03e3 f2bd
000000e0: 0d50 b83d a314 c5bc cd89 803d fe33 03bd
000000f0: 1815 153e b986 5abe ea47 823d 56c6 d8bd
-0.123809494 0.07395267 0.03689172 -0.050576687 0.07620685 0.05004447 -0.049200274 -0.15959315
-0.18094541 0.03127246 0.07573733 -0.058629964 0.0046379063 0.037905436 0.073341206 -0.11932759
-0.06180832 -0.044699967 -0.1253661 0.13295944 0.024927108 -0.107789166 -0.031138487 0.013868363
-0.15752864 -0.0060608564 -0.032597117 0.028292295 0.19977194 -0.19824375 -0.14140229 -0.117815584
-0.017589921 0.20617649 -0.013137549 0.037642673 -0.14098503 -0.051643178 0.078963056 -0.12480791
0.09359089 0.03643451 0.08720716 -0.056054723 0.026045984 -0.039510436 0.07055212 -0.13585708
0.10864755 0.012117452 -0.19485126 -0.18103632 -0.07741583 -0.02112304 0.08028113 -0.11859705
0.089996435 -0.024057692 0.062762834 -0.032032005 0.14558828 -0.21340455 0.06361373 -0.105847046

fc2.weight f4 [64, 64]
00000000: 22a6 75bc e8ae eebc 508a 62be a8a2 a5bd
00000010: 33b4 babd 9f13 a6bd 9241 413e 5586 913d
00000020: 27f2 3b3e 2524 87be 1001 36bd 71d6 c3bb
00000030: 2d4a 1bbe 3167 9a3a 0b3c bcbd eb9b 4a3b
00000040: cf84 a63d 8fdf 72be 4b34 90be 3a1b 053e
00000050: 0c3c 5c3c 318e d93d 4803 733d d17f f0bd
00000060: 8f43 92bd cced 3dbe 0063 53be 5b81 46be
00000070: 608c 633e 09ac 8cbd 8f8d ca3b 0d0f aa3e
00000080: aa6e 39be 22c9 62be 4d0f afbd d454 78bd
00000090: 21ab f4bc 0393 01be f817 eabd 9679 afbd
000000a0: 6d44 193c c304 5b3e 223d 14bd aa53 4f3e
000000b0: 3cb8 d7bd 5740 71be b962 d3bd a9da 3b3e
000000c0: 91d1 80be 6709 38be ef01 0fbd c5a8 c6bd
000000d0: 813f 8abe 1d43 f03d f688 e13d 6034 fe3c
000000e0: aba9 643e b2bc 50bc c005 c13d f3bb bf3e
000000f0: f0ac 013d 450d d03c 7c29 163d 4072 c0bd
00000100: ae75 7e3c dfc3 53bd 750f 8a3c 6113 373d
00000110: 496b 2d3c c1f9 42be 6d62 0cbe 39be 38bc
00000120: fd85 563d 1e2f 25be e3cb 0c3d b768 be3d
00000130: 0c42 e43d 2527 ffbd 4e70 713d cd72 8bbd
00000140: f6e5 ee3c 66a2 42bd 746a 6e3d a2b8 91be
00000150: f41c cebe 412f 9f3d bb2d 123e a46e e5bd
00000160: 079f adbc aca1 c13d 2957 70bd 01cb 75bd
00000170: 89fa c3bb 37df d13b 93a1 013e 1395 b33a
00000180: 4d9d 6dbd cc57 363e 3a70 45bd a952 0d3b
00000190: e07b 94be 6201 75bd ff6d d93c 8e3b 1b3c
000001a0: d834 0dbd 5adc 1f3d 08f1 2abc a122 90bc
000001b0: 0420 50bd cb23 01bd 280f e0bd ac71 e2bd
000001c0: 5ad9 323c 5631 7b3d c569 4fbd bb05 60b9
000001d0: f40e 953d 8ac6 933d b3e9 713e c1ca 2abd
000001e0: f4a0 db3c 8483 363d a6ec 23bd cee3 c5be
000001f0: 9a1d 163d b72f 0abd cad4 0f3e 50ef ee3d
00000200: 7d2b 923d f2c2 9a3c b446 8ebd a003 c13c
00000210: 324a 7bbd 2d67 b13d 25ff 3fbe 21de 623b
00000220: 5be9 90bd 13c3 b4be 3e86 c3bc 01f4 8c3d
00000230: b2e4 443d 590a 1a3c 5e8b 893c 996c ab3d
00000240: 9b07 bbbd 6aad d2b9 ba10 de3e 9b90 503e
00000250: 7aec f53d efc2 0fbe 8241 e83b 680c 82bd
00000260: a5d3 54be 0504 133e 691e b93d ac05 303c
00000270: 50a7 70be a32d 703d 795a 8f3d b834 3dbf
00000280: 6b65 adbd b8a8 973e 7b0c 7c3e af68 8dbd
00000290: 0c4c 223e 8113 debd 6292 26bc 7648 26be
000002a0: 7dd2 fb3d 8422 173e 7c09 483b f139 fe3c
000002b0: 59f7 5bbd a773 b4bd d0c0 a6ba 0d7e 17bc
000002c0: 2fac a53d a0f8 febc f49e 673c 579a 823d
000002d0: ac50 10bd 58fe dfbe f4b3 4a3e 37cd 0abe
000002e0: 4060 68bc aea7 87bd 2ba0 133e d009 973d
000002f0: 4f80 83bd 709e 123e eef3 2fbd cbf5 5bbd
00000300: 8cb5 52bc a4d5 da3b 7c7b 073e c7d5 3dbc
00000310: 58c1 aa3d f0cb c53b 30e3 793d 054c 513d
00000320: 5638 11be aebd 873c 642c 94bd 2126 383d
00000330: 0747 763d 3772 0cbe a4c8 01bd b40b 653d
00000340: 4f6d 3fbe bf42 c73d 1494 d03d cf74 cabd
00000350: 3043 e8be b95d 56be eed1 f43d 2aac 233d
00000360: cd50 283d ba15 a43e 603b cbbd 264f afbd
00000370: e680 babe 8995 d53d 25bf 863c 457e 9ebe
00000380: 2b90 e6bd b128 823e f4ed 6cbe a656 453c
00000390: c78e 863d a393 8dbe bf69 97be de50 083d
000003a0: fce6 9d3d cc6b 61be 7a97 ec3d bc68 663e
000003b0: 5696 c9bd 35e4 923d c6c4 ccbd 075d 72be
000003c0: 1019 a03d 1b8a 2a3e 6869 1d3d d178 2a3d
000003d0: 6314 8a3d 0f6d c2be b47a 563e a3d3 943d
000003e0: 5e79 3e3d 06e9 07be 6572 283e bf21 d5be
000003f0: 16ad 6abd 7dd1 8a3d 6b06 d7bd fcc9 33ba
-0.014993222 -0.029136136 -0.22123075 -0.08087665 -0.091164015 -0.08109211 0.1887267 0.071057
0.18354093 -0.26394764 -0.044434607 -0.005976491 -0.15165015 0.0011780021 -0.0919114 0.0030915688
0.081308 -0.23718093 -0.28164896 0.12998667 0.013442051 0.10622824 0.0593293 -0.11743129
-0.07141792 -0.18547744 -0.20643234 -0.19385283 0.22221518 -0.068687506 0.006181426 0.33214608
-0.18108621 -0.22147039 -0.0854784 -0.060627773 -0.029866757 -0.12653737 -0.11430353 -0.085681126
0.009354693 0.21388535 -0.036191113 0.20246759 -0.10533187 -0.235597 -0.10321564 0.18345131
-0.25159886 -0.17972337 -0.034913953 -0.09700159 -0.27001575 0.11731551 0.11012451 0.031030834
0.22330348 -0.012740301 0.09424925 0.3744808 0.031659067 0.025396952 0.036660656 -0.093967915
0.015530987 -0.05170047 0.016853074 0.044696216 0.010584661 -0.19040586 -0.13709421 -0.011275821
0.052373875 -0.16131255 0.03437413 0.092973165 0.1114541 -0.12458638 0.058944993 -0.06809006
0.029162388 -0.047518156 0.05820699 -0.28461176 -0.40256464 0.07772685 0.14275257 -0.11202744
-0.021193994 0.094546646 -0.058676872 -0.060008053 -0.005980794 0.006404783 0.12659292 0.0013701044
-0.05801134 0.1780693 -0.04820273 0.0021564162 -0.2900076 -0.059815772 0.026541708 0.009474648
-0.034474224 0.039028503 -0.010433443 -0.017594637 -0.050811782 -0.031528275 -0.10940391 -0.110568374
0.010916078 0.061326347 -0.05063798 -0.0002136444 0.07278243 0.07215603 0.23624305 -0.041697267
0.026810147 0.044559017 -0.040020607 -0.38650364 0.036649324 -0.03373691 0.14046016 0.11666739
0.07137201 0.018891785 -0.06947079 0.023561299 -0.061350055 0.08662257 -0.18749674 0.0034617262
-0.07075759 -0.3530508 -0.023867723 0.068824776 0.048069663 0.009401881 0.016790088 0.08370323
-0.0913231 -0.00040183525 0.43372136 0.20367663 0.12007995 -0.14039205 0.0070878873 -0.063500226
-0.20783861 0.14357002 0.090390034 0.01074354 -0.23501325 0.058637273 0.06999678 -0.7390857
-0.084666096 0.2962091 0.24614136 -0.069047324 0.15849322 -0.10843564 -0.010166736 -0.16238579
0.12296007 0.1475926 0.0030523231 0.031033488 -0.053702686 -0.088111214 -0.0012722258 -0.009246361
0.08089482 -0.031124413 0.0141370185 0.06377094 -0.035233185 -0.43748736 0.19795209 -0.13554846
-0.014183104 -0.06623779 0.14416568 0.073749185 -0.06420957 0.14318252 -0.04295724 -0.053701203
-0.012860667 0.0066783 0.132307 -0.011586613 0.08337659 0.006036274 0.06100768 0.05109789
-0.14181647 0.016569939 -0.07235029 0.044958238 0.06012633 -0.13715445 -0.031685486 0.055919364
-0.18694042 0.09729528 0.10184494 -0.09885561 -0.4536376 -0.2093419 0.119541034 0.03995911
0.041092683 0.32047826 -0.09923434 -0.08560018 -0.36426467 0.10428912 0.016448567 -0.3095571
-0.112579666 0.2542167 -0.23137647 0.012044584 0.06570201 -0.276517 -0.29572865 0.033280246
0.077100724 -0.22013777 0.11552329 0.2250089 -0.098431274 0.07172433 -0.09998469 -0.236683
0.0781728 0.16654246 0.0384306 0.041619126 0.0674217 -0.3797383 0.20945245 0.07266929
0.046502464 -0.13272485 0.16449888 -0.4162731 -0.057293974 0.06778238 -0.10499271 -0.0006858406

fc2.bias f4 [64]
00000000: cb96 003e 54a8 a23e ae97 be3e 568c 713e
00000010: 0a5c d83d 96db aebc ab43 b7bd ad15 c43b
00000020: 1b71 9e3d ded4 903d fcff 0dbe ed2d aebd
00000030: f59e c23e dde6 60bd 829b 5fbc 2f5b e83d
00000040: 2168 d4bd 785e 45bd d77e 273e 07c3 bc3d
00000050: 0c17 f73d b19d bd3d c541 0fbd 321d 913e
00000060: 3f36 71bd bf85 e53d c90e 1ebd 0fc7 b3bb
00000070: cd0b de3e 358d 963d 9092 e63d 055c dc3a
00000080: 0aac cbbd 11f0 e13e 1024 4abd 214a ebbd
00000090: 4868 b8bd 2a18 6dbe 0613 7abc 363d f53d
000000a0: cabe e53e 95ae ef3c cfe8 a2bd 5ea5 893e
000000b0: 3179 163d 02b4 ac3e 7adf 5a3d 1639 f2bd
000000c0: e7ff e6bc b5c8 7b3e 6710 813d 3fca ebbd
000000d0: 1036 703d 245f 3bbe 62f0 933e 8f3f d3bd
000000e0: eaba 813e ff47 913d 9ac3 1abc 36de 84bd
000000f0: a05d 8c3d 9157 b13d ba98 e7bb 2e66 893c
0.12557523 0.3176905 0.37225097 0.2358869 0.1056443 -0.021344941 -0.089484535 0.0059840293
0.07736417 0.07071851 -0.13867182 -0.085048534 0.380119 -0.05490767 -0.013647916 0.11345517
-0.103714235 -0.048185796 0.1635698 0.09216886 0.12064943 0.09258593 -0.034974832 0.28342587
-0.058889624 0.11207151 -0.03858832 -0.005486376 0.43368378 0.07351152 0.11258423 0.0016812092
-0.09944923 0.4412847 -0.049350798 -0.11488748 -0.09004265 -0.23153749 -0.015263325 0.11974566
0.44872123 0.029258052 -0.07954561 0.26883978 0.03673667 0.33731085 0.05343578 -0.118272945
-0.028198196 0.24588282 0.063019566 -0.11513185 0.058645308 -0.18298012 0.28894335 -0.10314857
0.25337917 0.0709381 -0.009446049 -0.06487696 0.06853795 0.0865928 -0.007067767 0.016772356

fc3.weight f4 [4, 64]
00000000: b5b8 013e 966d 113e 1987 773e 0dbe 003e
00000010: fe12 133f f9f7 68bd baeb a93c b3f6 83be
00000020: 3b6e 13be 3996 853e c507 15be efc4 07be
00000030: b7ab 1a3e c60a d33c ecf8 48bc 32d5 c8be
00000040: 80e7 59bd e6e5 afbd cc28 8c3c 4058 053f
00000050: 5540 133e 11ab 393e 48cc e03e 30f2 dd3d
00000060: 5c33 593d c84d af3d 2de1 dd3d 6504 243e
00000070: 9124 173e 0f41 ca3d e450 ef3d eeb4 413e
00000080: cf0d 9abe f376 e93d df1a ddbe d55f 9bbe
00000090: 6669 f03d c850 2ebe b267 dfbd a2aa acbd
000000a0: eacd 623e 3323 183e 3e5a 26bc 1178 df3d
000000b0: 02fd 983c 5d02 0b3e af79 cfbb 3082 183c
000000c0: 078c c8bc c7ac 5c3e 13b3 1cbf 53f7 90be
000000d0: 5d2c 5e3e 0b51 47be 86c5 373e f03a f5bd
000000e0: cc8c d4bd 481e 063e d3cb 4e3e 3144 48be
000000f0: b9e8 893e 0b03 8cbc fcea 723e 2912 b23d
00000100: 05f1 363e eb6c fe3d 4d69 563e c3c1 493e
00000110: 84d3 fc3e 549e 2c3e ebaa 88be 6c87 3bbe
00000120: 8cab 3c3e 8f27 b53e 9772 2abe 7440 38bd
00000130: 9d52 023e b633 373e 5663 1d3e 35aa 213e
00000140: 4c4f 953d c30b 06be e6b8 f23d cfad ca3e
00000150: 57f2 013e 9e09 b33d a84c cb3e db48 103e
00000160: 61fa 033e 0077 103e 2ab6 703d 1285 f6be
00000170: 694f 293e ba5e 703e 8baa 293e 994f 4c3e
00000180: 56e4 00bf b813 143e c888 8ebc caab a7bd
00000190: c0b6 683e 2295 71bd 77c3 e83e 469b 00bd
000001a0: 299f 413e 9b98 1f3e 7472 45be 0eaf 073e
000001b0: 58ff 9bbd 5d0a 1d3e 9e3b 153e 24ac 433d
000001c0: 83a7 c73d 267a 813e d471 583d f263 47be
000001d0: 8bed 413e c492 59be acba 1f3e e770 0abe
000001e0: 7ea1 a43d 84dd a43e 4b9b fc3c ee6b 11be
000001f0: 8930 473e 2b5c 7e3d b02b 213e c244 8abd
00000200: 99cf 123e fb53 5e3d 1163 803e a124 7c3e
00000210: 732e 113e 2ca8 d03e ccb4 b03d cbd7 1a3e
00000220: 91b9 c7be 65f9 f13e 64b0 20be 82fd bdbe
00000230: 1dfc de3d 7e14 b73e 5c6f 8bbb b00e 91bd
00000240: 4ab9 b6bb c8ea bc3d 261e 01be bf3f 973e
00000250: 29c5 523e 60e5 433e f093 f73d ce04 553d
00000260: ada3 8b3e 811d 68be e362 aebe e6d2 4cbe
00000270: 4af3 313e bbd2 453e 5217 063e beb6 643e
00000280: ab6d fcbe b443 043e 5b0f 49be 9941 953d
00000290: dd9a aa3e 3eed aebd bf7b d63c ecfa 9b3e
000002a0: 9ce3 193e 0637 f73e f68b 0c3e ef04 253e
000002b0: 78a9 e53d 97e4 583e 1ffd babe 357a 26bd
000002c0: 5a46 da3e aad8 953d f649 3cbe 4597 29be
000002d0: 2ee5 be3d 42f9 4bbe e2ad dc3d 1578 5f3d
000002e0: d01b 463e 23f0 893e 5bdd d9bd 0cc4 90be
000002f0: 3853 f33e 3872 66be 5221 d03c b409 34bd
00000300: 3d32 973e 1699 063e 498d 223e 9b55 663e
00000310: caac 0b3f 09cd d93c 1846 cabd 4a4e 7e3e
00000320: d94a 09be bef6 02be 5874 abbe c255 34bc
00000330: 2cfb 223e f12d fdbc 0e6e e1bd 37fb 93be
00000340: 8afe 31bf 3c82 de3d ecec cc3d 5f13 483e
00000350: 1ce9 763e 066f 073e feef 153f f331 b33d
00000360: 6ed1 3a3e 7b56 ac3e 07b7 86bd 559b 1a3e
00000370: 0f7a a63d 69bd 493c 230c 0b3e b000 183e
00000380: 41e7 acbe 5878 5a3e 3bba a1be 8ab6 b9bd
00000390: 753c 5a3e de70 dbbe 3ea2 a83e c6a7 983e
000003a0: 24da 263e 1f62 3d3d 15fc 4cbe 7dc8 103e
000003b0: c002 42be 182d 503e b5fa 5fbe cca2 493d
000003c0: 8b2a 91bd 3876 383e cf9b 3dbe 89b2 e2bd
000003d0: b4ae d83d 9396 3abe 69c6 763d 00c6 403e
000003e0: bff1 4c3e bbf2 bf3e 9e6b 913e 9dd3 15be
000003f0: 57e4 7c3e a076 123e d0ef 0f3e 1062 5e3e
0.12668116 0.1420196 0.2417263 0.12572499 0.57450855 -0.05687711 0.020742286 -0.25774154
-0.14397518 0.26091173 -0.14553745 -0.13258718 0.15104567 0.025761973 -0.012266379 -0.39225155
-0.05319929 -0.085887715 0.017109297 0.52087784 0.1438001 0.18131663 0.43905854 0.10837209
0.053027496 0.085597575 0.108339645 0.16017301 0.14760043 0.0987569 0.116853505 0.18916675
-0.3008866 0.11399641 -0.43184564 -0.30346552 0.11738853 -0.17023003 -0.1090845 -0.08430983
0.22148862 0.14857177 -0.010153351 0.10911573 0.018675331 0.1357512 -0.0063316445 0.009308383
-0.024480833 0.21550284 -0.61210746 -0.28313693 0.21696611 -0.19464509 0.17946443 -0.11974132
-0.103784174 0.13097489 0.2019494 -0.19557263 0.26935366 -0.017091295 0.23722452 0.0869487
0.17865379 0.12423118 0.20938607 0.1970282 0.49380124 0.16857272 -0.266929 -0.18313378
0.18424815 0.35381743 -0.16645275 -0.044983342 0.12726827 0.1789082 0.15369925 0.15787585
0.07290515 -0.13090424 0.11851673 0.3958573 0.12690102 0.08742069 0.39706922 0.14090292
0.1288848 0.14107895 0.058767475 -0.481484 0.16534199 0.23473635 0.16568963 0.19952239
-0.50348413 0.14460647 -0.017399207 -0.08187063 0.22725964 -0.058980115 0.45461628 -0.03139808
0.18908371 0.15585558 -0.19281942 0.13250372 -0.07617062 0.15335985 0.14573523 0.047771588
0.09748747 0.25288504 0.05284293 -0.1947172 0.18938272 -0.21247393 0.15598553 -0.13519631
0.08038615 0.32200253 0.030835768 -0.14201328 0.19452108 0.062099617 0.15739322 -0.06751396
0.14337005 0.05427931 0.25075582 0.24623348 0.14177875 0.40753305 0.08628234 0.15121381
-0.39008763 0.47260585 -0.15692288 -0.37107474 0.108879305 0.35757822 -0.0042552184 -0.070828795
-0.0055762874 0.092244685 -0.12609157 0.29540822 0.20583023 0.19130468 0.12088764 0.052006535
0.27273312 -0.22667505 -0.3405982 -0.20002326 0.17377964 0.19318669 0.13094833 0.22335336
-0.4930242 0.12916452 -0.19634764 0.072879024 0.33321276 -0.08541344 0.026182054 0.30464876
0.15028232 0.48284167 0.13725266 0.16115163 0.11213964 0.2118095 -0.3652124 -0.04064389
0.426318 0.07316716 -0.18387589 -0.16561611 0.09321056 -0.19919303 0.10775353 0.05455788
0.19346547 0.26941022 -0.10637923 -0.28274572 0.47524428 -0.22504508 0.025406513 -0.043954566
0.29530516 0.13144335 0.15874209 0.22493593 0.5456053 0.026587026 -0.098766506 0.24834552
-0.13407458 -0.12789437 -0.334872 -0.011006774 0.15916127 -0.030905696 -0.110073194 -0.289026
-0.6952902 0.10864684 0.10006127 0.1953864 0.24112362 0.13225946 0.58569324 0.087497614
0.18243954 0.3365973 -0.065778784 0.15098317 0.081287496 0.012313225 0.13578849 0.14844012
-0.33770183 0.2133497 -0.31587395 -0.0906802 0.21312125 -0.42859548 0.3293628 0.298155
0.16294152 0.046236154 -0.20018037 0.1413898 -0.18946362 0.20329702 -0.21872981 0.04922752
-0.070881926 0.18013847 -0.18516468 -0.11069209 0.10580197 -0.18221502 0.060247812 0.18825531
0.20014094 0.37489876 0.28402418 -0.14631505 0.2469648 0.14303064 0.14056325 0.21717095

fc3.bias f4 [4]
00000000: d860 ad3e 57b4 223e 305e 923e 8cfa 5d3e
0.33862948 0.15889107 0.28587484 0.21677607
